model_2578000.pt (torch, 275090 bytes, 10 tensors)

log_std f4 [1, 37]
-3.6401255 -3.6523838 -3.1552918 -1.3398277 -1.703573 -1.2594004 -4.195945 -5.062081
-5.3665404 -5.656698 -1.064405 -1.5380155 -2.1155787 -4.57701 -4.5276794 -4.147938
-4.593306 -4.317597 -4.24998 -4.5758734 -4.4885297 -4.476934 -5.200067 -5.5299215
-5.4389453 -1.0826219 -0.9938033 -0.52462435 -1.1355321 -0.76404524 -0.61665267 -1.0345377
-0.94780266 -0.9410148 -1.7560388 -2.384786 -2.4060156
00000000: d1f7 68c0 a8c0 69c0 4df0 49c0 797f abbf
00000010: ae0e dabf 0834 a1bf 2e45 86c0 91fc a1c0
00000020: b3ba abc0 ac03 b5c0 6c3e 88bf b1dd c4bf
00000030: a465 07c0 de76 92c0 c0e2 90c0 e8bb 84c0
00000040: 5dfc 92c0 c129 8ac0 d6ff 87c0 8e6d 92c0
00000050: 09a2 8fc0 0b43 8fc0 f366 a6c0 1ef5 b0c0
00000060: d70b aec0 5b93 8abf e569 7ebf c84d 06bf
00000070: 1e59 91bf 7898 43bf f3dc 1dbf bb6b 84bf
00000080: 32a3 72bf 59e6 70bf e1c5 e0bf 55a0 18c0
00000090: 29fc 19c0

mu.0.weight f4 [200, 49]
-9.919523 -5.0141625 -10.301581 -9.852034 -8.438451 -7.2344027 -10.761836 -2.631736
-11.276032 -0.6736167 0.688644 -0.17701185 0.47651866 11.275484 2.331494 0.11931958
-8.599767 -3.748248 -3.6390846 4.460662 -6.854705 -2.8777442 4.905905 -3.937214
2.0838914 -0.28851974 0.23198462 -0.03528845 -0.086666204 -0.28037935 -0.06155535 0.2951104
-0.3159309 -0.0415691 -0.27580735 0.030980613 0.14039819 0.021847747 -0.0143048065 0.01614043
-0.0044446094 -0.17374057 0.017341208 0.013646468 0.019308556 0.010947699 -0.0046794354 -0.25948104
0.3974404 0.07674429 2.0228856 -1.1123766 1.3951342 1.1313359 -3.3684897 0.03978899
1.3857795 -2.551577 2.0900002 -0.07583513 -0.11568824 0.20315404 1.469194 -1.1902348
1.1966066 -2.2873166 -0.30718568 1.9124898 4.3597198 -4.1495595 -1.1637099 -2.4890668
-1.098172 -0.39925426 -0.047667343 -0.013583685 -0.06778008 0.039354943 -0.099351026 0.058206365
0.033777107 0.08227822 -0.016425705 -0.034141198 0.0060981694 -0.0142627945 -0.5928063 0.25189802
-0.07240605 -0.20817377 0.34645197 0.18522456 -0.26277703 -0.6807344 2.2399762 0.62303644
-0.063416734 -0.16144224 -2.2263756 1.555893 -1.8325572 -2.9588425 0.8773044 -0.47660813
-1.0448385 -0.12535848 -0.2074675 1.7488902 0.2703815 0.039419197 0.2429148 -4.29802
-1.4287407 0.60103595 -0.22333102 -2.804783 1.8977801 -2.5663612 -3.4090822 -0.12294034
-4.3145547 -0.42813972 0.60011023 0.16096759 0.07539514 0.05463922 0.07023546 0.04815589
-0.073111005 0.10633128 0.08590455 -0.012969401 0.051831394 0.0004715741 -0.0028940295 0.6072021
-0.43622726 1.1964055 -0.44414857 0.8308709 -1.4295356 -0.6344858 -0.13317297 2.0417588
-1.3581989 0.394631 0.63816375 -2.6034906 0.56912553 -0.98965853 -1.1898954 -0.086017154
0.19590208 2.5710475 -2.92701 3.853358 -2.5752287 -0.09074143 0.16579115 1.0984259
9.558801 0.5471433 0.7387966 -2.1586847 -5.1824307 0.41720352 -1.1929789 -3.3070686
1.3623939 -2.0173495 -2.6214013 2.2935407 -0.11805118 -0.061129443 -0.07128433 -0.12386151
-0.12675665 -0.04169362 0.015720243 0.03938429 -0.060379446 0.22666575 0.06212031 -0.06418889
-1.4836584 0.28302783 0.27622223 2.6316586 3.4382918 1.8338171 -0.3682514 0.6900758
-0.78657365 -2.551854 -0.20705377 -1.7716496 -0.26438934 0.055349313 0.8438815 -0.03977408
-0.026811315 -0.13149689 -0.5780798 -0.7154393 3.349223 0.03240986 0.08574573 0.23894519
0.1009288 0.47427663 -0.2652226 -0.0946568 0.87371826 -0.10694546 0.30271778 -1.1335016
1.3221852 -0.1808826 1.1526403 -2.710297 3.2714162 0.025936166 0.009325556 0.011254346
-0.028049095 0.003532616 -0.0017181973 -0.013424894 0.05693698 -0.008959475 0.007615047 -0.08182423
-0.0047751586 -0.06841472 -0.052713647 -0.017236518 -0.09543407 -0.572785 -0.10512917 0.15012537
-0.707777 0.0034103477 -0.13920249 0.66958797 -2.3935769 -0.955707 -1.0478599 0.106289215
-2.0421045 -0.21450281 -3.835546 -2.3895006 -0.33545068 4.701744 -0.10439741 -0.120910645
00000000: 5eb6 1ec1 0574 a0c0 47d3 24c1 eea1 1dc1
00000010: e503 07c1 3a80 e7c0 7b30 2cc1 5d6e 28c0
00000020: a16a 34c1 2572 2cbf f94a 303f 9842 35be
00000030: 41fa f33e 6268 3441 3337 1540 d35d f43d
00000040: a598 09c1 4ce3 6fc0 c3e6 68c0 bebd 8e40
00000050: be59 dbc0 f62c 38c0 2cfd 9c40 50fb 7bc0
00000060: 7a5e 0540 dcb8 93be 608d 6d3e 9f8a 10bd
00000070: 0d7e b1bd e28d 8fbe 7621 7cbd b618 973e
00000080: b2c1 a1be 5c44 2abd 9f36 8dbe 0ecb fd3c
00000090: 8bc4 0f3e 0cfa b23c b55e 6abc ef38 843c
000000a0: 16a4 91bb 0ce9 31be 260f 8e3c 6f95 5f3c
000000b0: fa2c 9e3c fa5d 333c f355 99bb b3da 84be
000000c0: 4f7d cb3e 1c2c 9d3d f576 0140 5b62 8ebf
000000d0: c293 b23f 9dcf 903f 5695 57c0 c8f9 223d
000000e0: 3961 b13f 0a4d 23c0 90c2 0540 734f 9bbd
000000f0: f5ed ecbd 9d07 503e 8d0e bc3f 9d59 98bf
00000100: 682a 993f 6563 12c0 7147 9dbe 77cc f43f
00000110: d382 8b40 31c9 84c0 72f4 94bf df4c 1fc0
00000120: e690 8cbf 0e6b ccbe d53e 43bd 1b8e 5ebc
00000130: 48d0 8abd a632 213d 8d78 cbbd cc69 6e3d
00000140: dd59 0a3d 7c81 a83d 338f 86bc a4d7 0bbd
00000150: 27d3 c73b 7fae 69bc 27c2 17bf c7f8 803e
00000160: a049 94bd 812b 55be 2762 b13e 82ab 3d3e
00000170: b68a 86be 9c44 2ebf c55b 0f40 517f 1f3f
00000180: a2e0 81bd 1d51 25be f07c 0ec0 8027 c73f
00000190: 3c91 eabf ad5d 3dc0 0597 603f fb05 f4be
000001a0: 45bd 85bf f95d 00be 5c72 54be a2db df3f
000001b0: 726f 8a3e 0676 213d a8be 783e 6189 89c0
000001c0: fae0 b6bf 7edd 193f e3b0 64be 9181 33c0
000001d0: 75ea f23f 433f 24c0 672e 5ac0 25c8 fbbd
000001e0: d510 8ac0 2135 dbbe d3a0 193f b0d4 243e
000001f0: c468 9a3d 60cd 5f3d 9cd7 8f3d 1c3f 453d
00000200: 39bb 95bd 37c4 d93d baee af3d 9c7d 54bc
00000210: 284d 543d 9b3d f739 c2a9 3dbb 9971 1b3f
00000220: 2e59 dfbe d123 993f 7167 e3be f5b3 543f
00000230: 06fb b6bf a96d 22bf 7f5e 08be 2dac 0240
00000240: 76d9 adbf 130d ca3e b35e 233f 979f 26c0
00000250: 36b2 113f 435a 7dbf 7e4e 98bf c329 b0bd
00000260: 8e9a 483e 0b8c 2440 2254 3bc0 6b9d 7640
00000270: 8cd0 24c0 a5d6 b9bd 28c5 293e 3899 8c3f
00000280: d9f0 1841 9511 0c3f c621 3d3f e427 0ac0
00000290: 79d6 a5c0 b39b d53e 88b3 98bf 03a7 53c0
000002a0: ec62 ae3f 411c 01c0 0ac5 27c0 5fc9 1240
000002b0: d1c4 f1bd de62 7abd 85fd 91bd 1aab fdbd
000002c0: 7fcc 01be eec6 2abd bdc7 803c 6c51 213d
000002d0: 7050 77bd 111b 683e de71 7e3d 7775 83bd
000002e0: 85e8 bdbf 06e9 903e 006d 8d3e 186d 2840
000002f0: f90c 5c40 85ba ea3f 738b bcbe cfa8 303f
00000300: e45c 49bf 9351 23c0 e705 54be 6ac5 e2bf
00000310: 0a5e 87be f6b5 623d 9e08 583f 25ea 22bd
00000320: 67a3 dbbc 1fa7 06be 0afd 13bf 0827 37bf
00000330: ab59 5640 34c0 043d 759b af3d 0cae 743e
00000340: c2b3 ce3d 63d4 f23e 42cb 87be 6ddb c1bd
00000350: 00ac 5f3f 3906 dbbd d3fd 9a3e 9516 91bf
00000360: 5d3d a93f 4a39 39be b889 933f 8275 2dc0
00000370: e25e 5140 1578 d43c 38ca 183c 2664 383c
00000380: 37c7 e5bc 7683 673b 2235 e1ba 16f4 5bbc
00000390: c036 693d c3ca 12bc a587 f93b 7693 a7bd
000003a0: ef78 9cbb 041d 8cbd 44ea 57bd 9933 8dbc
000003b0: f072 c3bd 0aa2 12bf f64d d7bd 77ba 193e
000003c0: e030 35bf 2480 5f3b 198b 0ebe 1e6a 2b3f
000003d0: 5d30 19c0 37a9 74bf 4620 86bf 29ae d93d
000003e0: d7b1 02c0 a0a6 5bbe 9679 75c0 94ed 18c0
000003f0: 31c0 abbe b074 9640 4fce d5bd 00a0 f7bd

mu.0.bias f4 [200]
3.0534713 -3.5870872 -1.8404586 -3.5073369 10.092311 -13.876692 -0.53254306 4.83054
-6.49692 -1.9702227 -2.3013341 -3.687318 -8.840619 -1.320542 -1.698727 -2.746484
-2.6866703 -5.1993136 0.38905504 -10.929506 -5.349953 -6.835415 -5.431825 -3.5766501
-12.211731 -5.906724 -4.360158 -3.000965 2.4420311 -3.3904338 4.591554 -1.61683
-8.875931 -1.8335096 -8.000751 6.390557 -2.8998806 -2.3204262 -4.5357347 -1.3055303
6.457908 -8.599835 5.0495143 -2.6637945 -4.356239 -2.341041 1.5725394 -12.466545
-1.5916954 -1.2598484 -4.0481462 -2.9061847 3.5286033 -1.5567732 -0.8555213 5.2136927
-11.712852 0.073855996 -1.2062836 -25.100084 -0.29336643 -10.765345 -1.9772621 7.934799
4.3344946 -1.5662874 -5.7638426 6.809387 -5.3866987 4.677679 -1.7670228 1.4581357
-2.62183 -0.67362684 -3.7266848 -4.7168555 -3.4952557 -5.2583313 -1.7286836 -13.614325
4.128384 -3.3420045 8.3690195 -17.604712 3.5357296 -9.489326 -11.028262 -0.50007856
6.9373097 -1.3086786 -9.172947 3.8180428 -1.0751046 -0.8544163 1.1173286 -4.2376695
3.6998947 -2.3112957 -2.0839615 2.9388406 -0.8050379 -1.9169059 -1.0146798 3.555609
-8.606332 -3.3296704 -6.458539 -6.704566 -6.388431 -3.8611367 11.146967 -6.1777253
-3.5780761 -9.423092 -3.7865229 -3.8781362 -2.404747 -4.192465 5.3136706 -9.488095
-0.2005351 -0.58292747 3.9303982 -4.3915114 -1.0733399 -3.6256616 -5.882706 -1.3142648
-3.4794898 -1.3972455 0.7788546 -2.4855165 -1.5896288 -4.4076314 -4.2474236 5.0562887
3.479463 -2.655867 0.50585806 6.867162 6.0424294 -8.587 -6.0388904 -1.6656728
5.012509 5.065228 -7.9008913 7.0513372 6.5589085 -1.1513968 0.69005543 -3.7554739
-6.1729236 -1.015293 -1.104162 -7.7733574 -2.3769827 -4.8355765 4.8523993 -0.15754853
-1.1802285 -5.438941 -4.598654 -13.679376 5.198795 -10.171547 -8.978309 -11.142864
-1.102591 -0.89462644 -7.5611715 0.6349691 4.160911 -8.570456 -0.9141926 10.482891
-4.123957 -1.0642855 -5.1184726 -6.4345007 3.3398545 5.7752433 -1.9131969 5.033939
-5.46788 -4.046537 -9.101856 5.1730795 -0.66632986 4.143145 -7.895535 -3.4076588
-1.5631382 -0.75561297 -1.2785088 -7.563845 -5.3764396 -6.7986164 -1.7647995 -2.7316198
00000000: 136c 4340 d692 65c0 2694 ebbf 3578 60c0
00000010: 1b7a 2141 ee06 5ec1 be54 08bf c993 9a40
00000020: c5e6 cfc0 4230 fcbf 0f49 13c0 05fd 6bc0
00000030: 2d73 0dc1 8507 a9bf e36f d9bf 65c6 2fc0
00000040: 68f2 2bc0 c760 a6c0 3932 c73e 42df 2ec1
00000050: d132 abc0 b8bb dac0 83d1 adc0 d6e7 64c0
00000060: 4063 43c1 e203 bdc0 6a86 8bc0 d00f 40c0
00000070: 3d4a 1c40 defc 58c0 03ee 9240 49f4 cebf
00000080: d003 0ec1 71b0 eabf 1303 00c1 717f cc40
00000090: a597 39c0 dd81 14c0 bd24 91c0 9e1b a7bf
000000a0: 2fa7 ce40 ed98 09c1 9f95 a140 9c7b 2ac0
000000b0: 4f66 8bc0 9ed3 15c0 f948 c93f f876 47c1
000000c0: adbc cbbf b642 a1bf 6a8a 81c0 eefe 39c0
000000d0: a3d4 6140 5844 c7bf 7203 5bbf 92d6 a640
000000e0: d767 3bc1 d041 973d 8067 9abf f9cc c8c1
000000f0: 2034 96be da3e 2cc1 ed16 fdbf e0e9 fd40
00000100: 2eb4 8a40 1b7c c8bf 6671 b8c0 80e6 d940
00000110: d65f acc0 8caf 9540 ce2d e2bf 31a4 ba3f
00000120: 10cc 27c0 cf72 2cbf 0182 6ec0 7bf0 96c0
00000130: 45b2 5fc0 4044 a8c0 8145 ddbf 46d4 59c1
00000140: b91b 8440 67e3 55c0 81e7 0541 73d6 8cc1
00000150: 6549 6240 47d4 17c1 c373 30c1 2605 00bf
00000160: 71fe dd40 c882 a7bf 64c4 12c1 d05a 7440
00000170: 079d 89bf 07bb 5abf a004 8f3f fd9a 87c0
00000180: 13cb 6c40 45ec 13c0 a05f 05c0 f715 3c40
00000190: f716 4ebf 2c5d f5bf 07e1 81bf 198f 6340
000001a0: 89b3 09c1 5219 55c0 5aac cec0 ce8b d6c0
000001b0: 076e ccc0 dd1c 77c0 fa59 3241 edaf c5c0
000001c0: 33ff 64c0 fcc4 16c1 6456 72c0 6233 78c0
000001d0: 60e7 19c0 ac28 86c0 9709 aa40 3dcf 17c1
000001e0: 1359 4dbe bc3a 15bf a58b 7b40 4387 8cc0
000001f0: 3463 89bf d70a 68c0 213f bcc0 d439 a8bf
00000200: f6af 5ec0 f1d8 b2bf 0463 473f b412 1fc0
00000210: f578 cbbf 510b 8dc0 e5ea 87c0 1ecd a140
00000220: 86af 5e40 baf9 29c0 ea7f 013f cbbf db40
00000230: 955b c140 5a64 09c1 973e c1c0 c434 d5bf
00000240: 7966 a040 5916 a240 1ad4 fcc0 8ea4 e140
00000250: 94e2 d140 f860 93bf 79a7 303f af59 70c0
00000260: 9788 c5c0 1ff5 81bf 2e55 8dbf 58bf f8c0
00000270: 7c20 18c0 0bbd 9ac0 db46 9b40 6754 21be
00000280: ba11 97bf ce0b aec0 2c28 93c0 b9de 5ac1
00000290: 875c a640 a8be 22c1 27a7 0fc1 2c49 32c1
000002a0: b421 8dbf 3d06 65bf 1ef5 f1c0 568d 223f
000002b0: 2f26 8540 9620 09c1 8708 6abf ecb9 2741
000002c0: 75f7 83c0 823a 88bf 87ca a3c0 6ee7 cdc0
000002d0: 2dc0 5540 cbce b840 a3e3 f4bf 0716 a140
000002e0: dff8 aec0 3b7d 81c0 34a1 11c1 de89 a540
000002f0: 9894 2abf a594 8440 39a8 fcc0 1517 5ac0
00000300: ea14 c8bf da6f 41bf 2da6 a3bf 050b f2c0
00000310: cb0b acc0 448e d9c0 f3e4 e1bf dcd2 2ec0

mu.2.weight f4 [37, 200]
0.061690915 -0.013666425 -0.009487192 -0.0011945436 0.0030918755 -0.04131105 0.12570958 -0.039272092
-0.08569371 -0.02129068 0.0030472404 -0.06407492 0.018941429 0.04630862 -0.007425531 0.07478877
0.023703108 0.184407 0.03972538 -0.025143981 0.038847405 -0.077917404 0.13569696 -0.061136268
-0.024173496 -0.045374744 -0.03193853 -0.06861996 -0.04193157 -0.0020059347 -0.0009087123 -0.06066179
0.0051700673 0.10826892 0.0644834 0.046833407 -0.042240385 -0.08512735 0.005091757 -0.015159105
0.032779913 0.031305797 0.04745581 0.05051776 -0.054234337 -0.046607208 -0.013502197 -0.0105052125
0.12528934 -0.17428061 0.12859225 -0.05935716 -0.012206421 -0.040355552 0.041907687 0.010024728
0.020464832 0.032651834 -0.07441662 -0.02021147 -0.02136736 -0.082614526 0.09038378 -0.002844293
0.023289073 0.067430474 -0.01907118 -0.0046140105 0.024458572 -0.064892225 0.11641826 0.061060067
0.044271003 0.00035521766 0.11525207 -0.025867559 0.07086447 0.0015609451 -0.17240243 0.06617912
0.05382256 0.03883648 0.00051288813 -0.011706849 0.0007561653 -0.16087234 -0.034700643 -0.10402206
-0.025804348 -0.014600939 -0.025238674 0.024061307 0.019374602 0.0366393 0.019509353 -0.068884686
-0.014511715 -0.028486898 0.09616865 -0.024291541 -0.032388154 0.025905874 0.123400226 0.060343556
0.007035098 0.036829688 0.03313084 -0.018907422 0.030075809 0.069456436 -0.037625372 0.07581282
0.051950317 -0.041390996 -0.010079854 0.029354116 0.047877926 0.042395703 0.004271768 -0.05256592
-0.047364272 -0.033533506 -0.0052270726 -0.1503973 -0.078199625 -0.031281367 -0.031916935 0.11109408
-0.13723886 -0.034643285 -0.014755678 -0.072676525 -0.0519137 -0.0050886474 0.14600398 0.0047791163
-0.0049761278 -0.037335396 -0.035786584 0.016600482 -0.05233202 -0.079729766 -0.008928622 -0.16742906
0.009660395 -0.077535205 -0.05087488 0.025934216 -0.03899083 0.20293957 -0.061656564 0.03070729
-0.05385263 -0.015561807 -0.010914128 -0.054076817 0.00936219 0.037269738 0.017450424 -0.04822107
0.08724891 -0.03392025 -0.040499177 -0.18535718 0.030458743 -0.03161785 0.0073808427 -0.005237547
-0.07676192 -0.22681653 0.02129604 -0.005799284 -0.054898303 0.035522614 0.0650336 0.012927574
0.018033935 0.08079278 -0.02649009 -0.072900325 -0.017050771 0.07044647 0.10437955 -0.019600108
-0.046775162 -0.041895002 0.066449836 0.07217633 -0.0016402138 -0.015743732 0.02173118 -0.003493573
0.025819706 -0.06969166 0.057803832 -0.04781524 -0.06265355 0.014660924 0.035172433 -0.05437583
-0.11021886 0.03030117 -0.06768567 0.034861986 -0.022439852 0.040017504 0.033889472 -0.08180299
-0.09364335 -0.03130468 -0.015493106 -0.087199196 -0.083697475 -0.10492547 -0.038620148 0.031699676
-0.013181619 0.13088399 0.057848267 0.009495818 0.00705998 -0.11504607 0.10414239 -0.034294143
0.029916935 0.012588441 0.05178248 0.08067751 0.028637199 -0.0009404503 -0.010289798 -0.08758177
0.060963944 0.022309152 -0.014723224 0.011349558 0.011141883 0.004048451 0.019533407 -0.06167196
-0.009429742 0.024094056 0.089172125 0.09475241 -0.06863215 0.086562514 0.015912287 -0.1445464
0.120212905 0.1515714 0.108909264 0.041915663 -0.0019462579 0.069291614 -0.024702206 0.00735427
00000000: 9daf 7c3d 24e9 5fbc 2b70 1bbc 3b92 9cba
00000010: 10a1 4a3b c735 29bd 03ba 003e c6db 20bd
00000020: 2f80 afbd cb69 aebc 36b4 473b b639 83bd
00000030: 0e2b 9b3c 1cae 3d3d de51 f3bb db2a 993d
00000040: 052d c23c 30d5 3c3e 14b7 223d c0fa cdbc
00000050: 751e 1f3d 2993 9fbd 25f4 0a3e 066a 7abd
00000060: 7f07 c6bc deda 39bd fad1 02bd 9f88 8cbd
00000070: 70c0 2bbd 0076 03bb a636 6eba 7f78 78bd
00000080: ab69 a93b 18bc dd3d df0f 843d 63d4 3f3d
00000090: 4104 2dbd 4057 aebd c1d8 a63b e55d 78bc
000000a0: 3b44 063d 823a 003d 0661 423d b6eb 4e3d
000000b0: d324 5ebd 33e7 3ebd 5238 5dbc 0e1e 2cbc
000000c0: d94b 003e 9e76 32be b0ad 033e 7e20 73bd
000000d0: 71fd 47bc dd4b 25bd 65a7 2b3d c23e 243c
000000e0: dda5 a73c eebd 053d be67 98bd 8692 a5bc
000000f0: 9a0a afbc ce31 a9bd 221b b93d 5167 3abb
00000100: bac8 be3c fd18 8a3d 2a3b 9cbc 2031 97bb
00000110: 585d c83c 37e6 84bd b26c ee3d 1f1a 7a3d
00000120: 8355 353d 823c ba39 4709 ec3d 34e8 d3bc
00000130: 6421 913d a098 cc3a 438a 30be eb88 873d
00000140: 0b75 5c3d 0013 1f3d 5773 063a 15ce 3fbc
00000150: 6539 463a b8bb 24be 4322 0ebd 8509 d5bd
00000160: a463 d3bc c738 6fbc 56c1 cebc 381c c53c
00000170: 7cb7 9e3c 1713 163d 14d2 9f3c 6a13 8dbd
00000180: 8bc2 6dbc 5b5d e9bc 12f4 c43d 0eff c6bc
00000190: 71a9 04bd 8e38 d43c 42b9 fc3d ce2a 773d
000001a0: ae86 e63b bada 163d 34b4 073d bde3 9abc
000001b0: 8b61 f63c 2d3f 8e3d 101d 1abd c043 9b3d
000001c0: dbc9 543d 9b89 29bd f925 25bc 0b78 f03c
000001d0: a51b 443d 1ea7 2d3d 30fa 8b3b 5d4f 57bd
000001e0: 0a01 42bd 6e5a 09bd dd47 abbb c001 1abe
000001f0: 2027 a0bd e420 00bd 55bb 02bd 4b85 e33d
00000200: 5888 0cbe 1ee6 0dbd cdc1 71bc 6ed7 94bd
00000210: 76a3 54bd abbe a6bb 1182 153e 229a 9c3b
00000220: c90e a3bb 00ed 18bd f494 12bd bcfd 873c
00000230: 1a5a 56bd 5c49 a3bd 5b49 12bc 8672 2bbe
00000240: a246 1e3c c7ca 9ebd 2e62 50bd fe73 d43c
00000250: d9b4 1fbd 64cf 4f3e 988b 7cbd db8d fb3c
00000260: 9394 5cbd f3f6 7ebc 2cd1 32bc a77f 5dbd
00000270: df63 193c 27a8 183d 31f4 8e3c 7583 45bd
00000280: 8eaf b23d f6ef 0abd 77e2 25bd 46ce 3dbe
00000290: 9d84 f93c b881 01bd ffda f13b bb9f abbb
000002a0: 5a35 9dbd 9842 68be 0875 ae3c ec07 bebb
000002b0: 0bdd 60bd 2980 113d 5630 853d 2dce 533c
000002c0: e7bb 933c af76 a53d bf01 d9bc c44c 95bd
000002d0: 0fae 8bbc 3d46 903d f2c4 d53d 6890 a0bc
000002e0: 5097 3fbd 189a 2bbd da16 883d 2fd1 933d
000002f0: 71fc d6ba 00f9 80bc 9605 b23c 6ef4 64bb
00000300: d983 d33c 80ba 8ebd b6c3 6c3d ead9 43bd
00000310: 8150 80bd 5f34 703c f810 103d 31b9 5ebd
00000320: 6dba e1bd 293a f83c c99e 8abd 71cb 0e3d
00000330: c8d3 b7bc 65e9 233d b0cf 0a3d 5388 a7bd
00000340: 16c8 bfbd 5639 00bd ccd6 7dbc 7e95 b2bd
00000350: 9569 abbd 2ae3 d6bd 2930 1ebd 85d7 013d
00000360: b8f7 57bc 7406 063e 4ef2 6c3d 5994 1b3c
00000370: 6857 e73b 469d ebbd 9b48 d53d 0478 0cbd
00000380: 5c14 f53c c03f 4e3c de19 543d 403a a53d
00000390: 8f98 ea3c 8d88 76ba 8a96 28bc 125e b3bd
000003a0: 54b5 793d afc1 b63c ad39 71bc 7ff3 393c
000003b0: 728c 363c dea8 843b 8604 a03c bd9b 7cbd
000003c0: 347f 1abc e660 c53c e09f b63d 8d0d c23d
000003d0: 038f 8cbd b047 b13d 7c5a 823c f903 14be
000003e0: 2f32 f63d 8835 1b3e d20b df3d c2af 2b3d
000003f0: 9419 ffba c3e8 8d3d 485c cabc 17fc f03b

mu.2.bias f4 [37]
-0.01514389 0.057217095 -0.023386087 0.39907697 0.1368894 0.8408375 0.009118487 -0.041158736
0.011441154 0.008579155 -1.4886922 -0.12970433 0.51108766 0.043656 -0.01757165 0.1257941
0.050833676 0.0412639 0.12403721 0.073804475 -0.014248582 0.034216437 0.022936437 0.047361743
0.0577724 2.139946 -0.8125215 -2.251806 2.589164 -0.5495546 3.2616718 3.728606
-0.29069784 1.2125852 2.571546 -0.96258026 1.9528706
00000000: 141e 78bc 795c 6a3d 2e94 bfbc d153 cc3e
00000010: bc2c 0c3e 2041 573f b565 153c 1096 28bd
00000020: ae73 3b3c 968f 0c3c 778d bebf 36d1 04be
00000030: a4d6 023f a2d0 323d 6cf2 8fbc 2bd0 003e
00000040: f936 503d 5604 293d 3907 fe3d cd26 973d
00000050: e272 69bc 8926 0c3d 32e5 bb3c 63fe 413d
00000060: c1a2 6c3d e0f4 0840 6901 50bf 971d 10c0
00000070: ddb4 2540 9caf 0cbf 3bbf 5040 7ba1 6e40
00000080: 59d6 94be fe35 9b3f 3694 2440 a96b 76bf
00000090: aaf7 f93f

reward_fun.0.weight f4 [200, 49]
11.240785 -4.7760744 18.985537 -14.935423 0.805274 -5.515831 -5.353165 -29.368649
-23.06019 57.006042 -2.6031086 -3.9030485 13.272555 5.528822 4.6196494 10.139305
-43.211735 8.598002 26.307875 -4.670875 -7.6729302 15.770692 -5.2145824 -0.10829665
11.897711 -0.37357685 0.11365852 0.9095987 -1.3178678 1.1568075 0.14703998 1.0739295
-0.48188508 -0.3621989 -2.0076613 -1.2429961 0.39186242 2.9343936 4.380572 3.9837153
1.6925735 -19.443836 3.9898076 -9.742778 -0.35182127 0.1118138 -7.528209 -0.20674166
-11.249934 15.93253 9.129039 -30.980934 11.087374 3.4343188 -7.6825886 -2.089835
-7.522017 18.905588 7.6685357 5.7166424 -3.1257033 3.1558645 -11.504538 -4.818758
13.897358 -30.808025 7.223101 21.850452 43.35194 -8.630416 11.942499 3.7346826
0.3470343 29.074505 -3.5644462 -3.0546253 -4.2214527 -1.9725453 3.9998963 1.5470717
3.9458692 1.6441642 1.0201195 -0.8848507 -5.017946 2.1691003 13.96459 -2.9442647
1.2786741 14.7305355 -15.080966 -10.267308 -31.29814 8.543554 12.165318 -2.3877559
11.387785 8.987056 -14.475295 -47.377308 2.4285393 -10.393939 -7.1848626 -31.033293
-26.823278 -27.884579 -30.911455 57.641705 -7.566268 -0.9843739 15.579024 2.1509416
-8.912182 -1.7564619 -52.098637 -5.173035 12.229172 -14.970057 -8.57224 25.627722
-7.2470345 -9.344976 17.497759 -13.511604 -7.797449 0.3193251 1.2896129 -2.4303555
-0.40287244 2.3871636 -1.809833 -0.39204428 -2.507069 -0.21901506 -3.5378911 -3.0859284
-12.059646 13.463346 15.250382 -22.332933 -4.8512325 -11.648149 -11.949402 -8.9851675
-29.770422 1.3071736 -6.8897586 21.171495 -0.29021344 15.363098 6.437247 8.498523
-13.790798 -2.9138155 -12.515896 11.208204 29.725414 0.88386655 15.194925 10.471885
-1.7438225 -19.4395 13.269286 4.3689575 -4.5970407 18.467035 -35.024902 -2.282611
19.254126 40.077866 -13.601319 21.112965 6.6058517 0.7351819 -2.817335 -3.7083352
0.62458044 -0.9658781 -4.451023 4.002061 -2.7504056 -4.817545 -0.64221096 -1.6523178
18.402365 -34.606445 31.53394 25.467537 12.536078 5.568737 -13.234389 -7.345855
-8.4504795 -7.241995 10.713102 -11.48409 -38.340347 9.414442 8.4466095 6.6196837
-16.272724 3.7859201 -1.3339679 4.7474413 -15.7133 18.733892 -0.541904 4.3212533
-1.2989919 69.894875 -4.1880374 4.2014117 2.063075 -19.015461 8.157415 12.230813
-13.528148 2.4627912 -6.573699 -8.752611 15.491102 1.9913515 1.0879362 2.4109669
0.36311173 -2.1843426 0.6492986 -0.27987507 -0.30469167 -0.15849684 0.18866953 -1.566406
-0.5448129 -5.191016 -18.57868 8.18326 0.1000449 5.0941935 -1.5347267 6.821654
-15.194514 9.357735 5.2194247 -12.778597 5.828861 -15.793027 48.20414 -16.49816
-0.42343405 -2.9021685 5.4013495 -2.7335596 -16.155272 -43.536724 -17.18387 -1.7972423
00000000: 41da 3341 9ad5 98c0 61e2 9741 7ef7 6ec1
00000010: 7026 4e3f b081 b0c0 214d abc0 fef2 eac1
00000020: 457b b8c1 3006 6442 5599 26c0 8ccb 79c0
00000030: 635c 5441 1cec b040 2bd4 9340 983a 2241
00000040: d1d8 2cc2 6b91 0941 8776 d241 cf77 95c0
00000050: a588 f5c0 c154 7c41 dcdd a6c0 a2ca ddbd
00000060: 065d 3e41 7745 bfbe ccc5 e83d 76db 683f
00000070: e4af a8bf 4512 943f a691 163e 8676 893f
00000080: a4b9 f6be 2272 b9be 867d 00c0 7f1a 9fbf
00000090: 31a2 c83e 1bcd 3b40 a52d 8c40 31f5 7e40
000000a0: 40a6 d83f fa8c 9bc1 0259 7f40 6be2 1bc1
000000b0: eb21 b4be a2fe e43d 17e7 f0c0 16b4 53be
000000c0: bbff 33c1 a5eb 7e41 8b10 1241 f4d8 f7c1
000000d0: e265 3141 e1cb 5b40 c4d7 f5c0 dbbf 05c0
000000e0: 5db4 f0c0 a53e 9741 a564 f540 bcee b640
000000f0: 860b 48c0 aff9 4940 9612 38c1 4433 9ac0
00000100: 945b 5e41 d676 f6c1 a523 e740 bacd ae41
00000110: 6368 2d42 2f16 0ac1 7a14 3f41 0a05 6f40
00000120: 7bae b13e 9698 e841 e31f 64c0 fb7e 43c0
00000130: 2416 87c0 5d7c fcbf 4dfe 7f40 7206 c63f
00000140: 1f89 7c40 f973 d23f 4793 823f 9385 62bf
00000150: 0393 a0c0 8ad2 0a40 f66e 5f41 d56e 3cc0
00000160: 98ab a33f 46b0 6b41 a34b 71c1 e546 24c1
00000170: 9762 fac1 66b2 0841 24a5 4241 fed0 18c0
00000180: 5e34 3641 fbca 0f41 cf9a 67c1 5d82 3dc2
00000190: 306d 1b40 934d 26c1 65ea e5c0 2f44 f8c1
000001a0: 1396 d6c1 9e13 dfc1 a94a f7c1 1b91 6642
000001b0: de1e f2c0 eeff 7bbf af43 7941 07a9 0940
000001c0: 4c98 0ec1 bed3 e0bf 0165 50c2 8189 a5c0
000001d0: b0aa 4341 5a85 6fc1 e527 09c1 9305 cd41
000001e0: b5e7 e7c0 0685 15c1 69fb 8b41 882f 58c1
000001f0: b484 f9c0 947e a33e 0912 a53f f28a 1bc0
00000200: 4c45 cebe 4ac7 1840 9ca8 e7bf 07ba c8be
00000210: d273 20c0 7c45 60be cf6c 62c0 da7f 45c0
00000220: 4ff4 40c1 dd69 5741 9101 7441 d9a9 b2c1
00000230: 4c3d 9bc0 d15e 3ac1 c030 3fc1 3fc3 0fc1
00000240: d329 eec1 7751 a73f e778 dcc0 395f a941
00000250: db96 94be 40cf 7541 edfd cd40 f3f9 0741
00000260: 1ca7 5cc1 f47b 3ac0 1c41 48c1 ce54 3341
00000270: a6cd ed41 1445 623f 6a1e 7341 d78c 2741
00000280: 9335 dfbf 1984 9bc1 ff4e 5441 80ce 8b40
00000290: f51a 93c0 7dbc 9341 8019 0cc2 4c16 12c0
000002a0: 7308 9a41 bc4f 2042 019f 59c1 5ae7 a841
000002b0: 2363 d340 e234 3c3f 374f 34c0 5d55 6dc0
000002c0: 81e4 1f3f ca43 77bf c86e 8ec0 e210 8040
000002d0: a506 30c0 5429 9ac0 f067 24bf 267f d3bf
000002e0: 0b38 9341 006d 0ac2 8245 fc41 84bd cb41
000002f0: c793 4841 1833 b240 0fc0 53c1 3f11 ebc0
00000300: 2a35 07c1 6cbe e7c0 de68 2b41 d5be 37c1
00000310: 845c 19c2 8ea1 1641 5025 0741 73d4 d340
00000320: 8a2e 82c1 844c 7240 76bf aabf 0aeb 9740
00000330: ad69 7bc1 03df 9541 38ba 0abf b547 8a40
00000340: 5e45 a6bf 2dca 8b42 6704 86c0 f771 8640
00000350: 6c09 0440 aa1f 98c1 c684 0241 69b1 4341
00000360: 4b73 58c1 5f9e 1d40 be5b d2c0 b20a 0cc1
00000370: 8edb 7741 9be4 fe3f 7e41 8b3f 484d 1a40
00000380: c8e9 b93e 45cc 0bc0 6f38 263f c94b 8fbe
00000390: 8c00 9cbe ff4c 22be 9632 413e fe7f c8bf
000003a0: dc78 0bbf ce1c a6c0 23a1 94c1 a2ee 0241
000003b0: 57e4 cc3d a203 a340 ed71 c4bf fd4a da40
000003c0: bb1c 73c1 48b9 1541 8705 a740 2275 4cc1
000003d0: 0886 ba40 3db0 7cc1 0ad1 4042 3bfc 83c1
000003e0: 59cc d8be 21bd 39c0 dbd7 ac40 a4f2 2ec0
000003f0: ff3d 81c1 9b25 2ec2 9178 89c1 090c e6bf

reward_fun.0.bias f4 [200]
-11.441173 -23.394266 -14.895922 -21.42453 -8.249509 -12.048967 -17.835154 -5.296734
-3.8019614 -16.953224 -25.574757 -4.3436456 -8.091075 -24.809357 0.91578287 -3.9394317
-23.606264 -8.938372 -17.685757 -22.925737 -11.202739 -12.423201 -37.28089 -27.107521
4.8845005 -1.8172829 -8.83295 1.0222028 -10.85205 -14.346935 -21.432516 -0.11663577
-13.474436 3.6712852 -13.748564 13.778683 -8.31996 -11.073468 -6.2878237 -14.4415
-1.632655 -26.22931 -18.411642 -12.600471 -1.6828985 7.7482204 -1.8482683 -1.5753732
-34.01575 -26.403017 -1.2268085 -5.81677 -5.0172963 -15.393488 -11.91315 -8.597745
-4.9523005 -18.237646 -1.2477087 15.593161 0.41134354 6.6700397 20.397709 -13.067737
-1.9070683 -26.600142 -11.738896 4.9306655 -12.371688 5.7742705 -8.810822 -20.228579
-23.445364 -14.055002 4.903692 -4.7564206 -21.788048 -10.110468 -6.023173 -26.24919
-26.022259 -19.503107 -7.276376 -33.32207 -18.20091 -9.259926 -10.487881 8.35782
13.154399 -5.369832 -6.9474707 -12.145286 -2.7094471 10.778962 -17.404982 1.215832
-14.286007 -3.3169243 -18.908749 -22.40801 -14.937656 4.6132684 -14.298994 -5.0693645
-11.022562 -0.3661322 22.124958 2.921447 -5.0093536 -4.931114 -9.888283 -15.301884
0.6839799 -10.418706 -2.0797412 -15.4998865 -8.936063 -22.42135 -4.647452 -4.86675
7.0527725 -8.787142 -2.876163 -11.005879 -0.8033744 -14.539564 -7.2929 -17.992771
-17.76286 17.871332 -16.979197 -12.804156 5.378972 -9.697913 -7.665348 -3.7314844
-6.213118 -14.634949 7.27895 -9.865773 -14.583873 4.8790975 -9.957836 -22.370926
14.597176 -20.495617 -16.729866 -5.7605147 12.874452 -11.213549 -13.048896 4.3835363
-9.368086 -26.173645 -9.460422 2.9672143 -5.3099732 -25.68579 -5.841118 -7.6832223
-21.881903 -8.60748 3.3451936 -5.0108266 0.603414 -6.5834146 -11.641519 11.239271
-2.3176458 9.7315645 -15.383865 -51.440662 -10.153302 -8.230474 -16.470184 -20.067474
-0.3782167 -23.246614 -9.123526 -13.713149 -6.6634755 -12.2151785 0.9517821 -13.834711
-5.214548 -16.799757 -10.188275 -11.622128 -2.3739376 -35.996548 -14.793429 -19.885418
1.7746551 15.767971 7.100785 -7.2286096 -30.133265 -7.5805044 -13.117473 -6.948429
00000000: 0b0f 37c1 7527 bbc1 b255 6ec1 7065 abc1
00000010: fdfd 03c1 92c8 40c1 65ae 8ec1 d87e a9c0
00000020: 5653 73c0 34a0 87c1 1a99 ccc1 25ff 8ac0
00000030: 0b75 01c1 9079 c6c1 bf70 6a3f a61f 7cc0
00000040: a1d9 bcc1 9203 0fc1 6e7c 8dc1 e967 b7c1
00000050: 6b3e 33c1 6ec5 46c1 a21f 15c2 34dc d8c1
00000060: d44d 9c40 ba9c e8bf c353 0dc1 8bd7 823f
00000070: ffa1 2dc1 0c8d 65c1 cb75 abc1 bcde eebd
00000080: 4a97 57c1 56f6 6a40 1efa 5bc1 7c75 5c41
00000090: 8e1e 05c1 ed2c 31c1 da35 c9c0 6210 67c1
000000a0: d7fa d0bf a0d5 d1c1 0b4b 93c1 879b 49c1
000000b0: 3869 d7bf 6cf1 f740 0e94 ecbf d4a5 c9bf
000000c0: 2110 08c2 6139 d3c1 1008 9dbf fb22 bac0
000000d0: b18d a0c0 ba4b 76c1 439c 3ec1 5d90 09c1
000000e0: 3f79 9ec0 b3e6 91c1 ebb4 9fbf 967d 7941
000000f0: 9f9b d23e f770 d540 822e a341 7315 51c1
00000100: d01a f4bf 17cd d4c1 85d2 3bc1 03c8 9d40
00000110: 6ff2 45c1 d3c6 b840 20f9 0cc1 21d4 a1c1
00000120: 1b90 bbc1 4ae1 60c1 0beb 9c40 9934 98c0
00000130: ec4d aec1 7ac4 21c1 d5bd c0c0 57fe d1c1
00000140: 962d d0c1 5d06 9cc1 12d8 e8c0 cd49 05c2
00000150: 779b 91c1 a828 14c1 5cce 27c1 a1b9 0541
00000160: 6b78 5241 aad5 abc0 ae51 dec0 1753 42c1
00000170: 9567 2dc0 a176 2c41 673d 8bc1 62a0 9b3f
00000180: 7c93 64c1 7d48 54c0 1e45 97c1 9b43 b3c1
00000190: a400 6fc1 e59f 9340 aec8 64c1 3c38 a2c0
000001a0: 6a5c 30c1 ae75 bbbe eaff b041 fdf8 3a40
000001b0: a04c a0c0 b0cb 9dc0 6836 1ec1 84d4 74c1
000001c0: 4f19 2f3f 05b3 26c1 7b1a 05c0 89ff 77c1
000001d0: 1dfa 0ec1 ed5e b3c1 edb7 94c0 6abc 9bc0
000001e0: 50b0 e140 2298 0cc1 0e13 38c0 1518 30c1
000001f0: f2a9 4dbf 0ea2 68c1 705f e9c0 32f1 8fc1
00000200: 561a 8ec1 7df8 8e41 65d5 87c1 d3dd 4cc1
00000210: 8a20 ac40 a72a 1bc1 884a f5c0 a4d0 6ec0
00000220: ddd1 c6c0 c028 6ac1 29ed e840 35da 1dc1
00000230: 8b57 69c1 9121 9c40 4c53 1fc1 a8f7 b2c1
00000240: 088e 6941 06f7 a3c1 c4d6 85c1 2356 b8c0
00000250: c1fd 4d41 b26a 33c1 47c8 50c1 ee45 8c40
00000260: aee3 15c1 a063 d1c1 e35d 17c1 d7e6 3d40
00000270: 4deb a9c0 7f7c cdc1 70ea bac0 f5dc f5c0
00000280: 230e afc1 3db8 09c1 a717 5640 b158 a0c0
00000290: 5779 1a3f 55ab d2c0 a943 3ac1 0ed4 3341
000002a0: 4f54 14c0 7db4 1b41 5024 76c1 3dc3 4dc2
000002b0: ed73 22c1 06b0 03c1 f0c2 83c1 308a a0c1
000002c0: 9fa5 c1be 11f9 b9c1 f6f9 11c1 0f69 5bc1
000002d0: 313b d5c0 5f71 43c1 fea7 733f fa5a 5dc1
000002e0: 94dd a6c0 e765 86c1 2d03 23c1 3cf4 39c1
000002f0: 98ee 17c0 77fc 0fc2 e3b1 6cc1 5615 9fc1
00000300: e627 e33f 9c49 7c41 a139 e340 c550 e7c0
00000310: ed10 f1c1 7e93 f2c0 2be1 51c1 8859 dec0

reward_fun.2.weight f4 [200, 200]
-0.13022265 -2.1558938 0.04534774 -6.8582344 0.068087414 1.3044496 -2.3185565 -4.638613
0.5906091 -0.67738354 -3.24873 -2.2764387 1.813858 -1.9695958 0.9870308 -1.6551774
-7.0613494 -4.2729087 -6.4242244 -5.3306737 -1.2328212 -1.3069204 3.0315044 -0.412457
0.11093936 1.9020793 -0.9594323 -1.3065251 -3.344493 -3.2494493 -4.890494 0.112963535
-1.454461 -4.0866976 -1.7392277 1.5453838 -1.4783922 -6.4765778 2.549199 -0.91977257
1.460949 -0.6830252 -3.3800447 -3.0989115 -0.71900755 0.7053325 -1.3251246 -1.9835687
-2.3765464 0.30813822 -4.931537 -4.6241193 -3.0187478 0.2780204 -6.8429017 2.3043587
0.8183159 -3.0393107 0.7433764 -7.6609774 -3.872234 -2.2828574 -2.6379306 -5.9745927
1.141827 0.09558231 -3.4206254 -2.0623894 -2.4522536 -1.0232224 2.2365477 0.21710895
0.04032962 1.4193603 -1.9461385 -3.7600245 -2.1743991 -0.19884944 -7.106415 -1.8358415
-5.1494093 -0.3835962 0.7982713 2.9839206 -4.8663454 -2.222653 2.0874414 -7.2420945
-2.7457566 0.56735194 -0.71694064 -4.380199 -1.6519485 -2.6936803 -1.7779198 -2.335947
3.2828991 0.7868487 -1.3238232 1.2749199 1.6038102 -4.722685 -0.48084196 -0.52591294
-7.98764 -4.288435 0.7169083 1.2242124 -4.3102818 -2.4285233 -0.56543183 -7.127569
-8.865742 -0.11994111 3.1270723 2.572155 -6.9264827 -4.140061 -1.9292438 -0.98798865
-2.0404513 -5.322659 4.090232 -0.24130075 -0.98259306 -0.7363827 -4.1681757 -1.336349
1.326666 -11.351282 -11.710435 -2.7616408 -8.951651 -0.79086107 0.552764 -7.9662395
-5.5656347 0.52255845 -1.1258826 -0.3485308 -3.1354673 3.6458445 0.089745246 4.2382827
-2.6573849 -0.8363482 -3.9154127 0.26230368 -0.5083157 -1.0950359 -6.5297275 0.88995385
-6.9857717 2.0207367 2.7016995 -5.4990025 -0.5878655 -1.282545 -7.492023 0.91415566
-0.6190277 1.1953791 -7.2506247 1.5781816 -3.9070046 -0.7196705 -1.6265599 -2.7877455
-2.3797977 -0.7894278 2.0795321 -4.2802963 -5.0717173 -1.3149244 -1.9428495 -7.0339622
0.12069093 -1.9116251 -2.9698153 1.4357803 0.3800233 2.0768716 -1.9952326 -0.5592685
-1.0496273 0.13191848 -3.622252 -3.331363 1.1234552 -2.3882422 0.29211926 -4.4166036
-3.878559 -2.1642804 0.14982171 -0.5524853 -0.5002547 -2.3307157 -11.995975 -10.789324
-2.2499306 -2.7613642 0.62392616 -0.12912929 -4.476349 1.9904529 -6.1479654 -3.1839437
-3.642739 2.4411001 -1.3828385 -0.112616256 -3.428492 -4.3075304 -1.4723555 -3.7685454
1.0887034 -0.6588288 -0.2383217 -1.1036842 -10.820858 -0.63720334 -0.2208537 -2.7154214
-2.6055353 -1.8889339 -2.5674431 -1.5295072 -0.4876253 -3.2357326 -2.0787048 -0.32027698
-4.1628036 1.2653452 -1.4548908 -2.6955678 -4.6756563 0.24259864 -10.663877 -3.0830104
-1.0135996 -4.646079 -2.2580142 -1.3372692 -2.40271 2.8014183 -2.3014598 -2.7659202
-1.6434488 -3.3582757 -2.4309647 -5.516938 -0.26276258 -1.0244405 1.4262774 -3.411365
00000000: 1659 05be 2afa 09c0 8dbe 393d a876 dbc0
00000010: 6a71 8b3d 34f8 a63f 3b63 14c0 856f 94c0
00000020: 2832 173f 0269 2dbf 31eb 4fc0 2cb1 11c0
00000030: 802c e83f b71b fcbf 0dae 7c3f dadc d3bf
00000040: 93f6 e1c0 abbb 88c0 3f93 cdc0 e194 aac0
00000050: 16cd 9dbf 2b49 a7bf 2b04 4240 902d d3be
00000060: 2d34 e33d 5677 f33f 5b9d 75bf 373c a7bf
00000070: 2c0c 56c0 faf6 4fc0 ed7e 9cc0 6d59 e73d
00000080: c72b babf 3ac6 82c0 039f debf 23cf c53f
00000090: f53b bdbf 2040 cfc0 1426 2340 3776 6bbf
000000a0: 6000 bb3f bdda 2ebf a752 58c0 9154 46c0
000000b0: e110 38bf ac90 343f af9d a9bf 94e5 fdbf
000000c0: 5619 18c0 4bc4 9d3e 27cf 9dc0 c9f8 93c0
000000d0: 2a33 41c0 b158 8e3e 0df9 dac0 9d7a 1340
000000e0: 277d 513f 1184 42c0 ea4d 3e3f ba26 f5c0
000000f0: afd2 77c0 561a 12c0 dbd3 28c0 dd2f bfc0
00000100: 6327 923f a8c0 c33d 87eb 5ac0 30fe 03c0
00000110: b9f1 1cc0 f4f8 82bf 9923 0f40 cf51 5e3e
00000120: ac30 253d 99ad b53f 111b f9bf 3ea4 70c0
00000130: 5b29 0bc0 309f 4bbe c067 e3c0 dbfc eabf
00000140: f6c7 a4c0 b966 c4be 825b 4c3f 8ef8 3e40
00000150: 1ab9 9bc0 f23f 0ec0 a498 0540 3dbf e7c0
00000160: 7aba 2fc0 fa3d 113f 6c89 37bf 972a 8cc0
00000170: 0c73 d3bf 4265 2cc0 e092 e3bf 2880 15c0
00000180: 051b 5240 eb6e 493f 0a73 a9bf 9330 a33f
00000190: a749 cd3f 3c20 97c0 eb30 f6be 3ba2 06bf
000001a0: bf9a ffc0 dc3a 89c0 4d87 373f feb2 9c3f
000001b0: d4ed 89c0 ed6c 1bc0 24c0 10bf 0c15 e4c0
000001c0: 14da 0dc1 afa3 f5bd f421 4840 309e 2440
000001d0: bfa5 ddc0 617b 84c0 76f1 f6bf d3ec 7cbf
000001e0: c196 02c0 3953 aac0 2ee3 8240 8b17 77be
000001f0: 388b 7bbf 9483 3cbf b261 85c0 7c0d abbf
00000200: 31d0 a93f da9e 35c1 f15d 3bc1 b9be 30c0
00000210: f639 0fc1 df75 4abf f181 0d3f 6feb fec0
00000220: ae19 b2c0 64c6 053f ec1c 90bf a172 b2be
00000230: 7fab 48c0 8455 6940 5bcc b73d 03a0 8740
00000240: 9812 2ac0 ea1a 56bf 1f96 7ac0 ab4c 863e
00000250: fa20 02bf 232a 8cbf 87f3 d0c0 04d4 633f
00000260: 718b dfc0 c053 0140 a5e8 2c40 d4f7 afc0
00000270: 5a7e 16bf 6f2a a4bf a7be efc0 1b06 6a3f
00000280: 9978 1ebf 2f02 993f 1e05 e8c0 db01 ca3f
00000290: 5d0c 7ac0 533c 38bf 1d33 d0bf 6c6a 32c0
000002a0: 9b4e 18c0 f117 4abf 0e17 0540 30f8 88c0
000002b0: 824b a2c0 714f a8bf 4baf f8bf 3816 e1c0
000002c0: ce2c f73d 22b0 f4bf 7411 3ec0 a6c7 b73f
000002d0: 6a92 c23e 77eb 0440 c863 ffbf 382c 0fbf
000002e0: 305a 86bf a315 073e fad2 67c0 0d35 55c0
000002f0: 61cd 8f3f f6d8 18c0 a890 953e d154 8dc0
00000300: 503a 78c0 9283 0ac0 dd6a 193e ad6f 0dbf
00000310: b110 00bf 722a 15c0 83ef 3fc1 12a1 2cc1
00000320: ddfe 0fc0 31ba 30c0 a0b9 1f3f 783a 04be
00000330: 403e 8fc0 29c7 fe3f 22bc c4c0 bcc5 4bc0
00000340: a322 69c0 fc3a 1c40 da00 b1bf 5aa3 e6bd
00000350: 6a6c 5bc0 4ad7 89c0 2576 bcbf d92f 71c0
00000360: a25a 8b3f 01a9 28bf 9b0a 74be 8645 8dbf
00000370: 3c22 2dc1 c21f 23bf 7927 62be 77c9 2dc0
00000380: 17c1 26c0 96c8 f1bf fd50 24c0 e4c6 c3bf
00000390: 06aa f9be 3e16 4fc0 8009 05c0 58fb a3be
000003a0: b035 85c0 d5f6 a13f dd39 babf 2f84 2cc0
000003b0: fa9e 95c0 c76b 783e 3d9f 2ac1 0b50 45c0
000003c0: a2bd 81bf aeac 94c0 4e83 10c0 a32b abbf
000003d0: 00c6 19c0 704a 3340 1e4b 13c0 d604 31c0
000003e0: 885c d2bf fded 56c0 ed94 1bc0 c28a b0c0
000003f0: d188 86be de20 83bf 4290 b63f ce53 5ac0

reward_fun.2.bias f4 [200]
-25.494188 0.288549 -3.0815232 -0.43904814 -0.2296626 -0.65991163 -5.124374 -2.9018512
-8.436738 -0.9525886 -0.44131485 0.41546014 -14.36354 -16.777624 -16.56849 -10.00648
-0.4338561 -0.46943107 -0.6258748 32.162563 -13.904832 -0.6912443 -0.66055876 -0.8887228
-0.6095555 -13.902658 -2.4843502 -0.7629655 -21.027327 -1.2071222 -13.615701 -20.544952
-0.41183236 -0.41399336 -0.48606113 -0.46117285 -0.7344067 -4.099038 -0.4967105 -0.4289255
-7.2940936 -0.6568148 -1.2076833 -0.9652454 -21.646503 -20.593151 -0.669769 -0.32811508
-0.5854763 -0.48351815 -13.54232 -13.498213 -0.33710885 -11.840931 -0.36017472 -10.02188
-0.55038965 -3.6465151 -0.6425224 -0.21533898 -22.497677 -0.52056724 -15.521094 -0.43029717
-0.21998164 38.112682 -1.4052811 -2.0509338 -0.6346393 -0.72974825 -24.913383 -0.59566766
-13.920737 -16.657116 -0.62412137 -3.1755104 -1.6784142 -0.45345163 -2.0400167 -0.36481476
-0.31299338 -23.779005 -0.22562091 -0.34953013 -0.5169251 -0.35112432 -18.994453 -0.630865
-0.41860655 -0.50883156 -0.8767297 -6.454776 -10.094546 -0.8505174 2.2066503 -0.552936
-10.244547 -15.227545 -19.561443 -0.52323395 -0.66329116 -0.48295575 -0.43362185 -0.63386846
-0.45878923 -0.44908124 -0.74699837 -3.8993714 -1.455945 -0.77078533 -5.100295 -17.757048
-0.93428403 -0.167337 -0.57969165 -0.6021208 -13.486666 -0.42562976 -0.77831507 -0.77045274
-19.148474 0.7346712 -2.6358125 -0.57259005 -0.363079 -6.855121 21.001331 -13.363688
-0.9898337 -20.009737 -0.5301426 -10.086032 -0.5084999 -0.42180365 -3.486701 31.423975
-9.653762 -22.978937 -2.0316865 47.403687 -0.4451357 -0.30552727 -3.5343373 -0.36571035
-0.6684729 -4.5108056 -0.78055406 -0.67449456 -0.34648025 -0.4909761 -5.0442314 -0.6319987
-1.3368518 -0.3060487 -0.41535917 -0.45922002 -13.06348 -0.6757527 -3.9715123 -0.31907165
5.5406394 -14.089951 -8.070255 -0.49329498 -8.732216 -14.104371 -0.4992095 -0.7975199
-16.901724 -0.6567929 -2.7347383 -0.46853796 -0.53228813 -6.914385 -0.513144 -0.73072433
-6.9837656 -0.28922114 -0.49353778 -0.5322025 -1.113262 -19.78814 -3.0258317 -1.4961945
-0.6015417 -1.2032241 -0.26724482 -0.47193685 -0.4052777 10.754713 -0.56397915 -0.49563488
-0.23154956 -27.462353 -0.9229672 -9.153169 4.3660355 -0.4553945 -0.5437085 -0.30317396
00000000: 19f4 cbc1 b2bc 933e ad37 45c0 ebca e0be
00000010: ac2c 6bbe f8ef 28bf dffa a3c0 eeb7 39c0
00000020: e1fc 06c1 d9dc 73bf 05f4 e1be 31b7 d43e
00000030: 0fd1 65c1 9338 86c1 448c 84c1 8b1a 20c1
00000040: 6322 debe 4559 f0be 5539 20bf 77a6 0042
00000050: 317a 5ec1 63f5 30bf 611a 29bf 5683 63bf
00000060: d40b 1cbf 4a71 5ec1 98ff 1ec0 b551 43bf
00000070: f737 a8c1 fb82 9abf e9d9 59c1 105c a4c1
00000080: b1db d2be f0f6 d3be 01dd f8be d91e ecbe
00000090: 1402 3cbf 522b 83c0 d750 febe 209c dbbe
000000a0: 3769 e9c0 0425 28bf 5e95 9abf 531a 77bf
000000b0: 0a2c adc1 c6be a4c1 fb75 2bbf b3fe a7be
000000c0: c6e1 15bf b18f f7be 58ad 58c1 aef8 57c1
000000d0: 8899 acbe 7474 3dc1 d268 b8be 9f59 20c1
000000e0: 56e6 0cbf 8160 69c0 597c 24bf d281 5cbe
000000f0: 3efb b3c1 e543 05bf 6756 78c1 e94f dcbe
00000100: de42 61be 6373 1842 40e0 b3bf 8042 03c0
00000110: b977 22bf c8d0 3abf 9c4e c7c1 ad7d 18bf
00000120: 57bb 5ec1 c641 85c1 6bc6 1fbf 903b 4bc0
00000130: 47d6 d6bf d02a e8be a28f 02c0 00c9 babe
00000140: ab40 a0be 673b bec1 2b09 67be 9df5 b2be
00000150: 3455 04bf 91c6 b3be a4f4 97c1 5e80 21bf
00000160: 9953 d6be c942 02bf 5c71 60bf 868d cec0
00000170: 4383 21c1 82bb 59bf c239 0d40 378d 0dbf
00000180: aae9 23c1 06a4 73c1 d67d 9cc1 a9f2 05bf
00000190: 73cd 29bf fa45 f7be af03 debe 3445 22bf
000001a0: 6ce6 eabe faed e5be 493b 3fbf 4d8f 79c0
000001b0: 685c babf 3052 45bf 9e35 a3c0 6f0e 8ec1
000001c0: 3d2d 6fbf 645a 2bbe ac66 14bf 9724 1abf
000001d0: 62c9 57c1 25ec d9be a83f 47bf 643c 45bf
000001e0: 1330 99c1 6913 3c3f 27b1 28c0 4395 12bf
000001f0: 7ee5 b9be 275d dbc0 ba02 a841 abd1 55c1
00000200: be65 7dbf f113 a0c1 6db7 07bf 6360 21c1
00000210: 0d2d 02bf a6f6 d7be 1c26 5fc0 4d64 fb41
00000220: cf75 1ac1 ddd4 b7c1 2707 02c0 609d 3d42
00000230: d4e8 e3be 126e 9cbe 9532 62c0 633e bbbe
00000240: 0a21 2bbf 8558 90c0 64d2 47bf adab 2cbf
00000250: dc65 b1be 3861 fbbe 586a a1c0 abca 21bf
00000260: f61d abbf 6ab2 9cbe f5a9 d4be e31e ebbe
00000270: 0404 51c1 21fe 2cbf 422d 7ec0 5c5d a3be
00000280: eb4c b140 7070 61c1 c41f 01c1 2991 fcbe
00000290: 28b7 0bc1 81ab 61c1 6398 ffbe 442a 4cbf
000002a0: bb36 87c1 9423 28bf f405 2fc0 35e4 efbe
000002b0: 0944 08bf a442 ddc0 685d 03bf c010 3bbf
000002c0: 027b dfc0 cb14 94be fcb0 fcbe 6c3e 08bf
000002d0: 5f7f 8ebf 1c4e 9ec1 3aa7 41c0 4d83 bfbf
000002e0: a3fe 19bf 3f03 9abf 50d4 88be b5a1 f1be
000002f0: 8f80 cfbe 4e13 2c41 f060 10bf dbc3 fdbe
00000300: 541b 6dbe e6b2 dbc1 9447 6cbf 6173 12c1
00000310: 90b6 8b40 7829 e9be 7b30 0bbf 9e39 9bbe

reward_fun.4.weight f4 [1, 200]
-0.020961752 0.05980527 0.067448325 0.065113224 0.073191196 -0.028720852 -0.04800039 -0.031485233
0.10965135 -0.016490458 0.073563345 0.0073695662 0.04069242 0.07836078 0.011382768 0.02108621
0.065064654 0.079679534 -0.020501694 0.041117 -0.03404748 -0.062183812 -0.009265449 -0.06330982
-0.0046428037 -0.031937953 0.025317566 0.06853516 -0.037283294 -0.083357155 -0.09273948 0.08174003
0.08252948 0.0024489865 -0.0930444 -0.008173649 0.011658326 -0.05660436 -0.053629827 0.069230296
-0.1207151 0.013059907 -0.0762718 0.0437847 -0.12365355 0.07230354 0.019621095 -0.4028514
-0.07586341 0.02732323 0.031395905 0.04306679 -0.0029132625 -0.07653878 -0.020650957 0.07333621
-0.025792843 -0.07061717 0.061595798 0.062447585 -0.038595308 0.012662241 0.00959448 0.03823831
0.089797825 -0.15513772 -0.007785178 0.081049345 0.005102525 0.07374322 0.051932923 0.041711077
-0.093048595 0.07247567 0.012518094 0.01583869 -0.019390369 0.008766495 -0.0901165 0.030588478
0.031241154 -0.053425897 0.09346346 -0.03331052 -0.069829635 0.083282635 -0.055419736 0.057179663
0.05088303 -0.05533309 -0.05247477 0.14452831 0.15601648 -0.07456668 -0.054865815 -0.021193516
-0.054731436 -0.024534605 -0.064165555 0.02269233 0.08713757 0.05759888 0.010846929 -0.091551274
-0.0035139471 0.056003112 0.073014565 -0.049296085 0.032069083 -0.06620337 -0.02754607 -0.04509939
0.02988167 -0.07793525 -0.06185524 0.021777399 0.078093134 -0.009116776 -0.029834367 0.01372075
-0.11601738 -0.22093375 -0.058779165 -0.07850491 0.017909698 0.014856465 0.07224207 0.23150721
0.0627416 -0.033751134 0.019326357 -0.07645657 0.017901663 -0.0042727734 -0.020518264 0.004342302
-0.010961143 -0.014247311 -0.0832078 0.19210881 0.0005472051 -0.060573094 0.04717811 0.082930766
-0.005800636 -0.011088702 -0.08566905 0.02356004 0.05369363 -0.0315943 0.008357964 -0.020211518
-0.03645478 -0.0035043654 0.018733297 -0.09231436 0.03604193 0.07564455 -0.12479624 0.03822401
0.038990695 0.051995594 -0.0056868694 -0.0025142797 -0.024494315 0.08832245 0.053012826 6.481172e-05
0.058489647 -0.043145582 -0.060931247 -0.080768146 -0.04101185 0.08885199 -0.061574243 -0.01666645
0.025652893 0.05373535 0.05577078 -0.0066080736 0.08584261 -0.0036799253 -0.2696832 -0.05466783
-0.024001634 -0.0007016732 -0.039685395 -0.08096864 0.02378516 0.05200313 -0.08640173 0.054377012
0.026766956 -0.0029649849 0.06806494 -0.09703227 -0.0044473424 -0.09424446 -0.063374184 0.0156242065
00000000: fbb7 abbc 5ff6 743d 5922 8a3d 155a 853d
00000010: 44e5 953d fe47 ebbc 0f9c 44bd a9f6 00bd
00000020: e390 e03d ff16 87bc 61a8 963d 677c f13b
00000030: 18ad 263d 9e7b a03d ca7e 3a3c fdbc ac3c
00000040: 9e40 853d 062f a33d 2bf3 a7bc 4d6a 283d
00000050: 5f75 0bbd 74b4 7ebd 1cce 17bc 94a8 81bd
00000060: a922 98bb 5fd1 02bd c966 cf3c 295c 8c3d
00000070: 5eb6 18bd 28b7 aabd 32ee bdbd 5167 a73d
00000080: 3705 a93d 2d7f 203b 108e bebd c5ea 05bc
00000090: 9002 3f3c f9d9 67bd f3aa 5bbd 9dc8 8d3d
000000a0: 7a39 f7bd 38f9 553c 6434 9cbd 9657 333d
000000b0: 133e fdbd e113 943d 6bbc a03c 8a42 cebe
000000c0: 475e 9bbd f7d4 df3c fe98 003d cd66 303d
000000d0: 6fec 3ebb 5dc0 9cbd 322c a9bc 4b31 963d
000000e0: 834b d3bc bc9f 90bd e04b 7c3d 0ac9 7f3d
000000f0: 1d16 1ebd 4a75 4f3c 2a32 1d3c c69f 1c3d
00000100: ece7 b73d 6cdc 1ebe ce1a ffbb 33fd a53d
00000110: 1533 a73b af06 973d 9eb7 543d 3cd9 2a3d
00000120: 4390 bebd 206e 943d b118 4d3c 24c0 813c
00000130: 8dd8 9ebc 58a1 0f3c 008f b8bd b094 fa3c
00000140: 73ed ff3c 1dd5 5abd c569 bf3d 9d70 08bd
00000150: d702 8fbd 1690 aa3d ceff 62bd 3935 6a3d
00000160: b96a 503d f3a4 62bd c9ef 56bd 3bff 133e
00000170: c9c2 1f3e 6ab6 98bd faba 60bd 069e adbc
00000180: 122e 60bd ccfc c8bc 3b69 83bd 44e5 b93c
00000190: 2f75 b23d ceec 6b3d 51b7 313c 3c7f bbbd
000001a0: 404a 66bb 8563 653d a988 953d b1ea 49bd
000001b0: df5a 033d a295 87bd 4ca8 e1bc 23ba 38bd
000001c0: 67ca f43c 849c 9fbd ec5b 7dbd 8466 b23c
000001d0: 4bef 9f3d 885e 15bc 3467 f4bc ffcc 603c
000001e0: 859a edbd 753c 62be 6cc2 70bd 2fc7 a0bd
000001f0: 5cb7 923c 8868 733c a7f3 933d 3a10 6d3e
00000200: ab7e 803d a13e 0abd 4f52 9e3c 4395 9cbd
00000210: 82a6 923c 9f02 8cbb eb15 a8bc df49 8e3b
00000220: 5e96 33bc 8e6d 69bc da68 aabd 2cb8 443e
00000230: 5072 0f3a 7e1b 78bd d53d 413d 9bd7 a93d
00000240: 4313 bebb 63ad 35bc 4173 afbd fc00 c13c
00000250: daed 5b3d 0669 01bd d8ef 083c a092 a5bc
00000260: 9b51 15bd 7fa9 65bb 9276 993c 500f bdbd
00000270: b4a0 133d 88eb 9a3d 2c95 ffbd c890 1c3d
00000280: b5b4 1f3d 55f9 543d eb58 babb 9dc6 24bb
00000290: 4da8 c8bc 67e2 b43d fa23 593d 87eb 8738
000002a0: d792 6f3d 6cb9 30bd 0b93 79bd c569 a5bd
000002b0: 0bfc 27bd 08f8 b53d 4635 7cbd 1488 88bc
000002c0: 0426 d23c 9919 5c3d e76f 643d 8a88 d8bb
000002d0: 40ce af3d e72a 71bb eb13 8abe 60eb 5fbd
000002e0: 139f c4bc 7ef0 37ba 278d 22bd e3d2 a5bd
000002f0: 19d9 c23c 3c01 553d 64f3 b0bd 6eba 5e3d
00000300: 6046 db3c 3150 42bb a265 8b3d dbb8 c6bd
00000310: 03bb 91bb 3d03 c1bd 53ca 81bd acfc 7f3c
