policy_2578000.pt (torch, 33545 bytes, 4 tensors)

mu.0.weight f4 [128, 37]
00000000: 5c91 84be 1cfc f83d 9b99 53bc 1c7a 72be
00000010: 2320 4abe 3768 41be a81e 30be e9a1 09bf
00000020: 3909 7a3e b14e 88be 5ba3 103d aaa6 9a3d
00000030: 6a1c 70be d617 36bd 6735 1ebf e1b1 123f
00000040: b954 e5bc 4c14 d2be 8186 113f 7ef9 dcbc
00000050: fac5 18bf 60b2 243f b6a5 883e 48ab 01bf
00000060: 469e 1c3f 782b 2dbd 1bde 98ba 2ea8 2cbd
00000070: 6c31 0f3d c517 c03c 5c31 913c e510 013e
00000080: d3ae 60bc 09ac 25bd 5fae 9c3c df8b 3e3d
00000090: 3da7 3bbd 499b b63f 836d b73f 6a01 72bf
000000a0: 317d e3bf 44db f83d 11f2 6e3f d786 94bf
000000b0: fadc 9cc0 2089 48c0 5a97 ea3f c212 30be
000000c0: 89c7 463d 25b3 7b3f d408 f33d 40a8 79c0
000000d0: 19b6 0940 e81a 6bbe a8b2 16bd f88b 5540
000000e0: 8f93 7c3e 16c7 7ebf c8f4 e03f 21d0 d5be
000000f0: 6e07 4b3f affc eb3f 15c8 fa3d 5843 453e
00000100: 1cbb e63d 2929 0e3d fa6e 94bd caa5 80bd
00000110: 5bed 33be 6098 af3d a776 ddbb e6f9 233e
00000120: fe36 7fbd c108 38be 09a9 d93f 9da2 7fc0
00000130: 2123 a640 21ce 303f 6773 e7bd f628 7dc0
00000140: c273 6ec0 7dc3 ed3f 2264 09c0 bb06 cb40
00000150: 6b89 c43e b7e0 c53e 6695 9ebf 3eab ce40
00000160: ff6a d0c0 38a5 4240 de51 893f 3544 82c0
00000170: bd7c 513f c2ba 3fc0 6cf3 8e3f 5c23 fd3f
00000180: 74da 03c0 4836 b7c0 61d8 4340 8268 863e
00000190: 939c f3bc 037a 75be 7544 883e 8fe9 1e3e
000001a0: 0ac1 21bd a07e 223e e0d7 a0bb 0233 05be
000001b0: 521a 7f3e 0504 b9bd 7f88 f8be 673f 12bd
000001c0: be69 063f 8b8d abbd 0449 e1be 4650 c7bc
000001d0: 4aab 8dbd 9e84 f2bb 93de 45bd ae52 33be
000001e0: 216f d63d 2556 92bd c09a 8dbb 07a6 723c
000001f0: e62c 64be 32f1 17bf 8da9 a63e b91e f9bd
00000200: 9eb7 ebbe 8fbf 1c3f ef88 28be 3d37 c6be
00000210: 06a7 1a3f 7293 c23e 8239 9ebe 66c4 f53e
00000220: 9011 97bb 0306 bbbc f3f4 a23b 6229 513c
00000230: df61 b9bc 6663 763a f908 0c3d c76d 9e3d
00000240: 6350 d2bc 8c64 9fbd c35f 84bc e698 e1bb
00000250: 3aed 0dc0 80b2 69bf c4c2 773f 2190 e0be
00000260: 6657 873d ae1f 30bf dc48 10bf cc91 0f41
00000270: 6637 24c0 19a8 f3bf 1ab1 6ebe f6bd 3e3d
00000280: 6831 9bbf 9244 24bf 9285 333f 7858 3e40
00000290: b8d4 7140 8e81 47bf 5a40 b83c 8a3b 2b40
000002a0: edc2 0dc0 36e9 4f40 f844 1b40 4a9f b1bf
000002b0: 47ec eebc 9614 a93d a6b0 353e b794 3ebe
000002c0: ba28 3d3d 04c1 af3d 355c 243d 257b 55be
000002d0: 7a9e 72bc 7b20 cf3c c321 993e 4fcb 1f3e
000002e0: 0695 b7bd e200 d73e 60b4 94be a9fe a13f
000002f0: 5d73 e1be 2d5d c93e 8da0 67bf 08e6 bb3f
00000300: 2c78 71bf b15b 5340 fd19 9741 f021 7d3e
00000310: 50fc 723f 6881 ef3f 1527 1440 1940 163e
00000320: 4799 b03f bde0 ae40 59e7 f73f 9f28 2040
00000330: 199a 65c0 7a9c dd3f af6d 2d3e f298 b3be
00000340: d955 cc3e e5fc 823d 361f 50bd 7191 373e
00000350: bcc1 a03d 366b a93d 5461 573c 7c0d 9b3c
00000360: a3ef a83d 59c8 6c3c b060 31bd f0f3 b73b
00000370: 96d8 103d 0772 ac3d 04a0 ebbf c60b 6240
00000380: 1020 32be 15d0 433f dd79 0a40 de6a bf3f
00000390: 0e97 023f 9c26 1ebf 2cbd 4cc0 e79c 0d3f
000003a0: 6161 b5be c7ce eb3e 6034 d73e 28e7 41c0
000003b0: 6b32 45bf 331f 1e40 c119 d03d 35f7 99bf
000003c0: d09f de3f 21ee f03e e7f5 f6bf d836 f63f
000003d0: da5b 9b3f 037e b8bf d9b5 2440 cd50 0c3e
000003e0: bfe6 333c d35f babc 3b1e 9dbe feaf 073e
000003f0: bcf2 853d 5c3d 043e 75e2 85bc 53d2 a23d
-0.2589215 0.12157461 -0.01291504 -0.23679394 -0.19738822 -0.18887411 -0.17199194 -0.5376268
0.2441758 -0.26622537 0.035312038 0.0755132 -0.23448339 -0.044456325 -0.61800236 0.5730267
-0.0279945 -0.4103111 0.5684586 -0.026974436 -0.5967709 0.6433468 0.26688927 -0.5065198
0.61179006 -0.042277783 -0.0011662872 -0.042152576 0.03495924 0.023448834 0.017723732 0.12604101
-0.013713556 -0.04044727 0.019126115 0.04652011 -0.045813788 1.4266139 1.4330295 -0.9453341
-1.777258 0.121511966 0.93338114 -1.160365 -4.9019747 -3.1333694 1.8327439 -0.17194656
0.048530135 0.9832023 0.11866918 -3.9008942 2.1517394 -0.22959483 -0.036791474 3.336668
0.24665664 -0.9952253 1.7574701 -0.41760352 0.7930821 1.8436488 0.12245194 0.19263971
0.11266157 0.034707222 -0.072477296 -0.06281622 -0.17571013 0.08573985 -0.006758529 0.16013297
-0.062308304 -0.1797209 1.700471 -3.9943001 5.191788 0.6906453 -0.11301308 -3.955625
-3.7258153 1.8575283 -2.1467366 6.3445716 0.38386092 0.38648006 -1.2389343 6.4584036
-6.513061 3.0413342 1.0728109 -4.070826 0.8183096 -2.9957738 1.1168036 1.9776416
-2.0602083 -5.725376 3.0600817 0.26251608 -0.029737746 -0.23972325 0.2661473 0.15518783
-0.039490737 0.15868616 -0.004908547 -0.13007739 0.24912384 -0.0903397 -0.48541638 -0.035704996
0.525051 -0.083766066 -0.4400102 -0.02433027 -0.069174364 -0.007401063 -0.048307966 -0.17512009
0.10470415 -0.07145337 -0.004321426 0.014810092 -0.22282752 -0.5935241 0.32551232 -0.12164063
-0.46038526 0.61229795 -0.16458486 -0.38714018 0.6041111 0.38003117 -0.3090325 0.48001403
-0.004610248 -0.022830015 0.004973048 0.012766214 -0.022629676 0.0009398967 0.034188244 0.07735782
-0.025673097 -0.0778285 -0.016158944 -0.006884682 -2.2176042 -0.91287994 0.96781564 -0.43859962
0.06608467 -0.6879834 -0.56361175 8.973095 -2.5658813 -1.9035674 -0.23309746 0.04656788
-1.2124453 -0.6416713 0.7012569 2.9741497 3.7786083 -0.7793206 0.022491623 2.675509
-2.2150223 3.248609 2.4260845 -1.3876736 -0.0291654 0.082558796 0.17743167 -0.18611418
0.046181418 0.08581737 0.040126998 -0.20847757 -0.014808292 0.025284043 0.2990857 0.156049
-0.08963971 0.4199286 -0.29043865 1.2655841 -0.44033328 0.393289 -0.90479356 1.4679575
-0.9432399 3.3024714 18.88769 0.24719977 0.9491625 1.8711367 2.3148854 0.14672889
1.3796777 5.464934 1.9367477 2.5024793 -3.5875304 1.7313378 0.16936372 -0.35077626
0.39909247 0.06395892 -0.050811015 0.17926575 0.07849452 0.08272402 0.013145763 0.018927328
0.08248832 0.0144520635 -0.0433051 0.0056137964 0.035362802 0.084201865 -1.8408208 3.5319686
-0.17395043 0.76489383 2.163688 1.4954488 0.5101174 -0.61777663 -3.1990461 0.5531754
-0.35425857 0.46056196 0.42032146 -3.0297337 -0.77030057 2.4706542 0.10161162 -1.2028567
1.7392521 0.47056678 -1.9293793 1.9235487 1.2137406 -1.4413456 2.573599 0.13702698
0.010980307 -0.02275077 -0.30687127 0.1325073 0.065404385 0.12914032 -0.016343335 0.079502724

mu.0.bias f4 [128]
00000000: 9f98 15bf 625f 7bc0 2bbc 0fc0 f87c c9be
00000010: b811 0c3f f00f 9abf 03a7 1fc0 f8c1 06c0
00000020: 1060 16c0 690a 53bf 9730 17c0 6f46 8cc0
00000030: f1be 103f 3c87 7dc0 73f4 43c0 1784 4dc0
00000040: 808a e7be 0f2a 8f3f df62 26c0 cb9f adc0
00000050: 5501 eabf 3cc9 abbf ab77 01bf 4d86 08c0
00000060: 279f b63e 42f4 30c0 734c 80c0 0407 1ec0
00000070: 5d36 d93f fb05 86c0 d5f0 67be 7875 0ac0
00000080: 88fa 5dc0 04be c6c0 8925 9fc0 fcea 60be
00000090: 08e7 dcbf 6a10 02bf 6eb3 29c0 e169 23c0
000000a0: d13f dec0 7b47 d2c0 21ab 9dc0 d864 6dc0
000000b0: 8ad2 eebf 14d6 8bbe aca0 11c0 1acc 92c0
000000c0: 9052 4ec0 35b2 33c0 72d1 8bc0 5455 e6bf
000000d0: 7120 8bbf 0130 22c0 ddab 1ec0 23de 11c0
000000e0: d881 2e40 3452 69c0 6cfb 9bbf 4aaf b0c0
000000f0: 2cdf 31c0 573b 75c0 291c eb3f 73c9 09c0
00000100: 273d 61c0 bcb3 16c0 ab5e 09c0 5633 23c0
00000110: 4929 15bf 2cc7 05c0 c324 95c0 87a0 83bf
00000120: 622a b4be bf70 32c0 3152 2cc0 36ec 3d40
00000130: 1793 a6c0 16d2 49c0 c069 7841 b009 bfc0
00000140: bed6 05c0 8670 02c0 69fb 43c0 1220 83c0
00000150: ace2 9cbf a41e 1fbf 1196 a0c0 2d6d 34c0
00000160: 0d59 27c0 3ae9 ffbf 7447 11c1 d74b 49c0
00000170: 46e4 57c0 5797 90bf d677 dbbf 795d 0940
00000180: fe11 6ec0 56ae 31c0 4e49 08c0 06bb a7be
00000190: 94d0 99c0 22d1 40c0 93a6 15c0 fdd6 0dc0
000001a0: 7bf3 5bc0 3736 0cbf f569 1bc0 6b0b b3c0
000001b0: 65d6 8ac0 6c04 9ac0 bc74 8fc0 1222 10c0
000001c0: bc5a f2bf 1236 72c0 2308 e5c0 9e14 2dc0
000001d0: df26 13c0 cd4d f3bf 8f5e 64c0 ca86 b4bf
000001e0: 8bd8 83be 8ea0 73c0 5b61 403f a851 7bc0
000001f0: d8c1 16c0 8817 b93f c4ef 0cc0 1d95 7dc0
-0.58436006 -3.9276967 -2.2458599 -0.39353156 0.54714537 -1.2036114 -2.4945686 -2.105589
-2.3496132 -0.8243776 -2.3623407 -4.383598 0.56541353 -3.961379 -3.061795 -3.2111871
-0.45222855 1.118471 -2.5997846 -5.425756 -1.8281657 -1.3420787 -0.50573224 -2.133197
0.356683 -2.7649083 -4.009332 -2.4691782 1.6969715 -4.18823 -0.22650464 -2.1634197
-3.4684162 -6.2106953 -4.973332 -0.2196464 -1.7258005 -0.50806296 -2.6515765 -2.5533373
-6.94529 -6.5712256 -4.9271398 -3.70928 -1.8658001 -0.27311766 -2.2754316 -4.5874147
-3.2237892 -2.807752 -4.369317 -1.799479 -1.0869275 -2.53418 -2.4792397 -2.2791831
2.726675 -3.6456423 -1.2186103 -5.5213976 -2.7792463 -3.8317468 1.8367969 -2.1529205
-3.5193574 -2.35472 -2.146403 -2.5500083 -0.5826612 -2.0902815 -4.6607375 -1.0283364
-0.35188586 -2.7881315 -2.6925166 2.9675422 -5.2054553 -3.1534476 15.525818 -5.9699326
-2.0912318 -2.038118 -3.0622199 -4.097665 -1.2256675 -0.6215613 -5.0183187 -2.8191636
-2.6148102 -1.999305 -9.079945 -3.145254 -3.3733077 -1.1296185 -1.7145946 2.14633
-3.7198482 -2.7762656 -2.1294742 -0.32759875 -4.806711 -3.0127645 -2.338292 -2.2162468
-3.4367359 -0.54770225 -2.428342 -5.595144 -4.338671 -4.81304 -4.483 -2.2520795
-1.893394 -3.7845502 -7.1572433 -2.7043834 -2.2992475 -1.9008118 -3.5682714 -1.4103634
-0.25751147 -3.8066745 0.7514855 -3.926859 -2.3555813 1.4460306 -2.2021341 -3.9622262

mu.2.weight f4 [24, 128]
00000000: 74af 6fbd cebd db3d 89cd d6bb 8e7e 8dbd
00000010: fb3d 333e 3a20 36bd 3280 d63d 2475 2bbe
00000020: cba9 8ebe 18a3 85bd 8556 c93d a79e 4a3d
00000030: 1d6f 0c3e 3a06 cdbe 5909 eb3d bd20 a63b
00000040: 1aa2 c13c ecb7 ccbd 1a30 e03d 6206 873f
00000050: 2568 21bd a62b 80bd 6289 c43d 5886 8dbd
00000060: a647 babd cec9 013e 7f94 273d 73b4 58bd
00000070: 31f4 cabc 0808 fabf 78e1 bb3d 7106 81bd
00000080: d4a8 80be 2758 0e3f ca71 91be cf02 9cbc
00000090: a18d 833d 8848 99bd 5297 82be 5bbb c6bd
000000a0: a1cc 35bf 20d0 ae3e a8ff 41bf 19ef 973d
000000b0: ccba be3c 6159 d13c db23 7ebb 5ff6 73bf
000000c0: 4a4d c33c 70f8 a03d 067b ebbc e6db c13d
000000d0: a503 133d 040f 05be fb7f 8dbe 3ca5 5a3e
000000e0: df03 603d 1605 ee3e 26a5 85bd 91ef 3dbc
000000f0: 2732 cc3d 51b8 9cbe 754b d0bd cf4d 1bbe
00000100: 1840 ac3c 5a3c 2ebc b71d b2be 489f a2bb
00000110: 778c 2ebd 30d6 143e 20b8 103f 45f6 a1be
00000120: 345c b5bc c57b 06bd 8c58 d53e 0b88 273d
00000130: 3585 08c0 7277 3abe 2018 fe3e 1b87 d4c0
00000140: 9a33 06bd 0fbf b9be 6806 0fbe 023d db3d
00000150: 629e 3abd b119 c83d 0a2b e9bf 5c8f 46be
00000160: 87e4 d9bb 9c0c 963e 9b0a 0241 fb2c fd3e
00000170: 7655 1dbe 1be8 81bd b14c 3e3e 6b06 dbbe
00000180: 319b c0bf 0702 04bd 2333 11bf 5d30 183d
00000190: 4ae7 52bf 37d2 8d3e 45a5 ecbd b2b2 87be
000001a0: 7ad2 11be 1a43 f7bd cc56 c0be 3eae c53e
000001b0: 08b7 283d 57c3 51be 98a6 4ebe 06e4 d4bd
000001c0: bcae d6bd 57ce 7d3d 8b43 2bbf 2ab0 dd3d
000001d0: f019 98bd b4ed 4a3e 5021 65bf d7b7 23be
000001e0: 71b2 a23c 4156 e03e bc68 ea40 e42f 373d
000001f0: 6c21 aebd be04 5dbe 984a 4a3e 085f 1dc0
00000200: c6b7 8abd f153 5c3e 1b55 173e 1c3b 5e3d
00000210: 588f a1bc 0514 86be bed4 143d 8726 ef3d
00000220: 54e5 d3bc 2df3 153e 2418 983e 65d2 dd3d
00000230: 2527 22be 235d 033f a280 9cbd 3e70 d0bd
00000240: 4093 c2bc b4b1 c23d 94d0 c13e ae76 193f
00000250: 51dc 933d 49bf 1bbf c7bc f6bd 4757 41bd
00000260: 3591 593f d934 1cbe 3ff2 b7bd 5392 1bbe
00000270: fdcb 30bd 76a6 1b3f 9464 76bd f5e6 c93d
00000280: 4709 5d3f eabc 163c 25cb efbe 4f10 98bd
00000290: 2e4b ecbe f296 77be 7760 ac3d 1117 ee3d
000002a0: 4e4c 0f3f cc8c 5abe d836 0f3f ec66 f23d
000002b0: c6ae 55be b974 9ebc a4e3 07be 9365 a7bd
000002c0: 0d2c 573e 49b4 153e d17a 06bf f66b 8fbd
000002d0: cbff ac3d 7879 c13d a612 12be e7b6 683c
000002e0: c444 9abd 7c9e 193f 8da8 d8bd a761 26be
000002f0: df8a ba3e 2be0 863f 7aad 83bd cb1e e8bd
00000300: c06c 853d 3dd1 ad3d b571 a83e c738 c8bd
00000310: aa95 eb3c 9ca9 2e3e be5f 0dbd 89f8 a63d
00000320: 5ed9 70bd 8ad2 2abe fa42 f4be a510 48bc
00000330: 868c 2a3f 0dd5 9cbc 3a9a 7fbe dc59 08be
00000340: 33b4 6dbd 53aa e23d b66a 483e daef 743e
00000350: bd1f bcbd d4ea 163e 680e 6abe 76ff c73d
00000360: 0200 4abd 40d0 89be 5402 bebb a88d 833f
00000370: 567b 4b3f f5a7 613c 6556 7f3e b949 49be
00000380: c26e 2740 2f70 1cbe 9393 84be 9db0 223d
00000390: 8bba a8c0 4909 a83e cc59 8abe 954c f2bd
000003a0: b009 3240 0a83 453e 965d b83e aba2 fbbf
000003b0: 1efb 263f 4479 e93e 28f8 2a3f f769 24be
000003c0: 3bdf 143d d842 4d3e 7c38 143f 0fa4 9bbe
000003d0: 6b6c 053e b6e4 923e 98c4 5840 4896 933d
000003e0: 6251 1f3c ce3c 0ebf 3f58 643d 1df7 b13e
000003f0: b0d0 973e af55 683d 8141 bf3d 708c 283e
-0.058516935 0.10729562 -0.0065552634 -0.06908904 0.17504112 -0.044464327 0.1047367 -0.16743904
-0.27863917 -0.06525248 0.098309554 0.04946771 0.13714261 -0.40043813 0.11476392 0.0050698207
0.023636866 -0.09996018 0.10946675 1.0548823 -0.03940596 -0.06258325 0.09596516 -0.0691039
-0.09095697 0.12674639 0.0409131 -0.052906465 -0.024774643 -1.9533701 0.09173864 -0.06300057
-0.25128806 0.5560326 -0.28407127 -0.019044308 0.06423498 -0.07484537 -0.25506073 -0.09703704
-0.71015364 0.34143162 -0.75780725 0.07418651 0.023282431 0.025555314 -0.0038778696 -0.9529781
0.023840565 0.07859886 -0.028745186 0.094657704 0.035892148 -0.1299401 -0.27636704 0.21352094
0.05469119 0.46488255 -0.0652564 -0.011592762 0.09970503 -0.30609372 -0.10170642 -0.151664
0.021026656 -0.010634506 -0.34788296 -0.0049628355 -0.042614426 0.14534831 0.5653095 -0.316332
-0.022138692 -0.03283288 0.41669118 0.040901225 -2.1331303 -0.18209627 0.4962778 -6.6414924
-0.032764055 -0.3627858 -0.13967288 0.10704996 -0.045561202 0.09770525 -1.821626 -0.19390625
-0.006649557 0.29306495 8.127589 0.4944838 -0.15364632 -0.06343099 0.18583943 -0.42778334
-1.5047361 -0.032228496 -0.56718653 0.037155498 -0.8238417 0.27699444 -0.1155496 -0.2650352
-0.14240447 -0.120733455 -0.3756622 0.386095 0.041190177 -0.20484672 -0.20180738 -0.103950545
-0.10482547 0.06196436 -0.6689994 0.10824616 -0.07426822 0.19817239 -0.89503956 -0.15988098
0.019860478 0.43815807 7.325285 0.044723406 -0.085024685 -0.2158384 0.19755018 -2.4589252
-0.06773333 0.21516396 0.14778559 0.05425559 -0.019721672 -0.2618715 0.0363357 0.116772704
-0.025866188 0.14643545 0.29705918 0.10831145 -0.15835245 0.5131399 -0.07641722 -0.101776585
-0.023751855 0.095065504 0.37854445 0.59946716 0.072197564 -0.60838753 -0.12047725 -0.047202375
0.84987193 -0.15254535 -0.08981752 -0.15192537 -0.04316329 0.60800874 -0.060154513 0.09858505
0.8634228 0.009200314 -0.46834674 -0.074249856 -0.46151108 -0.24178675 0.08416837 0.11625493
0.55975807 -0.21342772 0.5594306 0.11836037 -0.20867452 -0.019342767 -0.13270432 -0.081736706
0.21012898 0.14619555 -0.5253115 -0.07003014 0.08447226 0.094469965 -0.14264926 0.014203764
-0.07532647 0.6000745 -0.105790235 -0.16248189 0.36434075 1.0537161 -0.064295724 -0.11333998
0.06514883 0.08487175 0.32899252 -0.097764544 0.028757889 0.17056888 -0.034515135 0.08152873
-0.058801048 -0.16681877 -0.4770735 -0.012211 0.6662067 -0.01914456 -0.24961177 -0.13315529
-0.05803318 0.11067643 0.19571957 0.23919621 -0.09185741 0.14738017 -0.22857058 0.09765522
-0.049316414 -0.26916695 -0.0057986174 1.0277605 0.7948507 0.013772954 0.249353 -0.19657029
2.6161351 -0.1527717 -0.2589384 0.039719213 -5.2727714 0.32819584 -0.27021635 -0.11831013
2.7818413 0.19288269 0.360089 -1.9659017 0.65226924 0.4560033 0.66784906 -0.16056047
0.0363457 0.2004503 0.5789869 -0.30398604 0.1302964 0.28690118 3.3869991 0.07206398
0.009723993 -0.5556153 0.05574822 0.34758845 0.29651403 0.05672234 0.09338666 0.16459823

mu.2.bias f4 [24]
00000000: f3e6 32bf 7b82 0b40 8aff e63e d12e 3bbe
00000010: 5f17 0440 929d 8dbe 40ac 703f bc67 1c40
00000020: ce57 95bd a386 e3bb de1a cc3f 835f 31c0
00000030: 1ca2 89bf 9074 1bbf 41a0 b6bf 95d3 85bf
00000040: 4003 23bf ef70 0ec0 c69a 59bf 3dd0 33bf
00000050: dd82 f5bf 6a8e f7be f4ad 2cbf c4bf 28bf
-0.6988365 2.179839 0.45116836 -0.18279578 2.0639265 -0.2765928 0.9401283 2.4438314
-0.07292138 -0.00694354 1.5945699 -2.7714546 -1.0752597 -0.60724735 -1.4267656 -1.0455195
-0.63676834 -2.225643 -0.8500179 -0.7023962 -1.9180561 -0.4835084 -0.6745293 -0.6591761
